
FOCUS_DETR(
  (backbone): ResNet(
    (stem): BasicStem(
      (conv1): Conv2d(
        3, 64, kernel_size=(7, 7), stride=(2, 2), padding=(3, 3), bias=False
        (norm): FrozenBatchNorm2d(num_features=64, eps=1e-05)
      )
    )
    (res2): Sequential(
      (0): BottleneckBlock(
        (shortcut): Conv2d(
          64, 256, kernel_size=(1, 1), stride=(1, 1), bias=False
          (norm): FrozenBatchNorm2d(num_features=256, eps=1e-05)
        )
        (conv1): Conv2d(
          64, 64, kernel_size=(1, 1), stride=(1, 1), bias=False
          (norm): FrozenBatchNorm2d(num_features=64, eps=1e-05)
        )
        (conv2): Conv2d(
          64, 64, kernel_size=(3, 3), stride=(1, 1), padding=(1, 1), bias=False
          (norm): FrozenBatchNorm2d(num_features=64, eps=1e-05)
        )
        (conv3): Conv2d(
          64, 256, kernel_size=(1, 1), stride=(1, 1), bias=False
          (norm): FrozenBatchNorm2d(num_features=256, eps=1e-05)
        )
      )
      (1): BottleneckBlock(
        (conv1): Conv2d(
          256, 64, kernel_size=(1, 1), stride=(1, 1), bias=False
          (norm): FrozenBatchNorm2d(num_features=64, eps=1e-05)
        )
        (conv2): Conv2d(
          64, 64, kernel_size=(3, 3), stride=(1, 1), padding=(1, 1), bias=False
          (norm): FrozenBatchNorm2d(num_features=64, eps=1e-05)
        )
        (conv3): Conv2d(
          64, 256, kernel_size=(1, 1), stride=(1, 1), bias=False
          (norm): FrozenBatchNorm2d(num_features=256, eps=1e-05)
        )
      )
      (2): BottleneckBlock(
        (conv1): Conv2d(
          256, 64, kernel_size=(1, 1), stride=(1, 1), bias=False
          (norm): FrozenBatchNorm2d(num_features=64, eps=1e-05)
        )
        (conv2): Conv2d(
          64, 64, kernel_size=(3, 3), stride=(1, 1), padding=(1, 1), bias=False
          (norm): FrozenBatchNorm2d(num_features=64, eps=1e-05)
        )
        (conv3): Conv2d(
          64, 256, kernel_size=(1, 1), stride=(1, 1), bias=False
          (norm): FrozenBatchNorm2d(num_features=256, eps=1e-05)
        )
      )
    )
    (res3): Sequential(
      (0): BottleneckBlock(
        (shortcut): Conv2d(
          256, 512, kernel_size=(1, 1), stride=(2, 2), bias=False
          (norm): FrozenBatchNorm2d(num_features=512, eps=1e-05)
        )
        (conv1): Conv2d(
          256, 128, kernel_size=(1, 1), stride=(1, 1), bias=False
          (norm): FrozenBatchNorm2d(num_features=128, eps=1e-05)
        )
        (conv2): Conv2d(
          128, 128, kernel_size=(3, 3), stride=(2, 2), padding=(1, 1), bias=False
          (norm): FrozenBatchNorm2d(num_features=128, eps=1e-05)
        )
        (conv3): Conv2d(
          128, 512, kernel_size=(1, 1), stride=(1, 1), bias=False
          (norm): FrozenBatchNorm2d(num_features=512, eps=1e-05)
        )
      )
      (1): BottleneckBlock(
        (conv1): Conv2d(
          512, 128, kernel_size=(1, 1), stride=(1, 1), bias=False
          (norm): FrozenBatchNorm2d(num_features=128, eps=1e-05)
        )
        (conv2): Conv2d(
          128, 128, kernel_size=(3, 3), stride=(1, 1), padding=(1, 1), bias=False
          (norm): FrozenBatchNorm2d(num_features=128, eps=1e-05)
        )
        (conv3): Conv2d(
          128, 512, kernel_size=(1, 1), stride=(1, 1), bias=False
          (norm): FrozenBatchNorm2d(num_features=512, eps=1e-05)
        )
      )
      (2): BottleneckBlock(
        (conv1): Conv2d(
          512, 128, kernel_size=(1, 1), stride=(1, 1), bias=False
          (norm): FrozenBatchNorm2d(num_features=128, eps=1e-05)
        )
        (conv2): Conv2d(
          128, 128, kernel_size=(3, 3), stride=(1, 1), padding=(1, 1), bias=False
          (norm): FrozenBatchNorm2d(num_features=128, eps=1e-05)
        )
        (conv3): Conv2d(
          128, 512, kernel_size=(1, 1), stride=(1, 1), bias=False
          (norm): FrozenBatchNorm2d(num_features=512, eps=1e-05)
        )
      )
      (3): BottleneckBlock(
        (conv1): Conv2d(
          512, 128, kernel_size=(1, 1), stride=(1, 1), bias=False
          (norm): FrozenBatchNorm2d(num_features=128, eps=1e-05)
        )
        (conv2): Conv2d(
          128, 128, kernel_size=(3, 3), stride=(1, 1), padding=(1, 1), bias=False
          (norm): FrozenBatchNorm2d(num_features=128, eps=1e-05)
        )
        (conv3): Conv2d(
          128, 512, kernel_size=(1, 1), stride=(1, 1), bias=False
          (norm): FrozenBatchNorm2d(num_features=512, eps=1e-05)
        )
      )
    )
    (res4): Sequential(
      (0): BottleneckBlock(
        (shortcut): Conv2d(
          512, 1024, kernel_size=(1, 1), stride=(2, 2), bias=False
          (norm): FrozenBatchNorm2d(num_features=1024, eps=1e-05)
        )
        (conv1): Conv2d(
          512, 256, kernel_size=(1, 1), stride=(1, 1), bias=False
          (norm): FrozenBatchNorm2d(num_features=256, eps=1e-05)
        )
        (conv2): Conv2d(
          256, 256, kernel_size=(3, 3), stride=(2, 2), padding=(1, 1), bias=False
          (norm): FrozenBatchNorm2d(num_features=256, eps=1e-05)
        )
        (conv3): Conv2d(
          256, 1024, kernel_size=(1, 1), stride=(1, 1), bias=False
          (norm): FrozenBatchNorm2d(num_features=1024, eps=1e-05)
        )
      )
      (1): BottleneckBlock(
        (conv1): Conv2d(
          1024, 256, kernel_size=(1, 1), stride=(1, 1), bias=False
          (norm): FrozenBatchNorm2d(num_features=256, eps=1e-05)
        )
        (conv2): Conv2d(
          256, 256, kernel_size=(3, 3), stride=(1, 1), padding=(1, 1), bias=False
          (norm): FrozenBatchNorm2d(num_features=256, eps=1e-05)
        )
        (conv3): Conv2d(
          256, 1024, kernel_size=(1, 1), stride=(1, 1), bias=False
          (norm): FrozenBatchNorm2d(num_features=1024, eps=1e-05)
        )
      )
      (2): BottleneckBlock(
        (conv1): Conv2d(
          1024, 256, kernel_size=(1, 1), stride=(1, 1), bias=False
          (norm): FrozenBatchNorm2d(num_features=256, eps=1e-05)
        )
        (conv2): Conv2d(
          256, 256, kernel_size=(3, 3), stride=(1, 1), padding=(1, 1), bias=False
          (norm): FrozenBatchNorm2d(num_features=256, eps=1e-05)
        )
        (conv3): Conv2d(
          256, 1024, kernel_size=(1, 1), stride=(1, 1), bias=False
          (norm): FrozenBatchNorm2d(num_features=1024, eps=1e-05)
        )
      )
      (3): BottleneckBlock(
        (conv1): Conv2d(
          1024, 256, kernel_size=(1, 1), stride=(1, 1), bias=False
          (norm): FrozenBatchNorm2d(num_features=256, eps=1e-05)
        )
        (conv2): Conv2d(
          256, 256, kernel_size=(3, 3), stride=(1, 1), padding=(1, 1), bias=False
          (norm): FrozenBatchNorm2d(num_features=256, eps=1e-05)
        )
        (conv3): Conv2d(
          256, 1024, kernel_size=(1, 1), stride=(1, 1), bias=False
          (norm): FrozenBatchNorm2d(num_features=1024, eps=1e-05)
        )
      )
      (4): BottleneckBlock(
        (conv1): Conv2d(
          1024, 256, kernel_size=(1, 1), stride=(1, 1), bias=False
          (norm): FrozenBatchNorm2d(num_features=256, eps=1e-05)
        )
        (conv2): Conv2d(
          256, 256, kernel_size=(3, 3), stride=(1, 1), padding=(1, 1), bias=False
          (norm): FrozenBatchNorm2d(num_features=256, eps=1e-05)
        )
        (conv3): Conv2d(
          256, 1024, kernel_size=(1, 1), stride=(1, 1), bias=False
          (norm): FrozenBatchNorm2d(num_features=1024, eps=1e-05)
        )
      )
      (5): BottleneckBlock(
        (conv1): Conv2d(
          1024, 256, kernel_size=(1, 1), stride=(1, 1), bias=False
          (norm): FrozenBatchNorm2d(num_features=256, eps=1e-05)
        )
        (conv2): Conv2d(
          256, 256, kernel_size=(3, 3), stride=(1, 1), padding=(1, 1), bias=False
          (norm): FrozenBatchNorm2d(num_features=256, eps=1e-05)
        )
        (conv3): Conv2d(
          256, 1024, kernel_size=(1, 1), stride=(1, 1), bias=False
          (norm): FrozenBatchNorm2d(num_features=1024, eps=1e-05)
        )
      )
    )
    (res5): Sequential(
      (0): BottleneckBlock(
        (shortcut): Conv2d(
          1024, 2048, kernel_size=(1, 1), stride=(2, 2), bias=False
          (norm): FrozenBatchNorm2d(num_features=2048, eps=1e-05)
        )
        (conv1): Conv2d(
          1024, 512, kernel_size=(1, 1), stride=(1, 1), bias=False
          (norm): FrozenBatchNorm2d(num_features=512, eps=1e-05)
        )
        (conv2): Conv2d(
          512, 512, kernel_size=(3, 3), stride=(2, 2), padding=(1, 1), bias=False
          (norm): FrozenBatchNorm2d(num_features=512, eps=1e-05)
        )
        (conv3): Conv2d(
          512, 2048, kernel_size=(1, 1), stride=(1, 1), bias=False
          (norm): FrozenBatchNorm2d(num_features=2048, eps=1e-05)
        )
      )
      (1): BottleneckBlock(
        (conv1): Conv2d(
          2048, 512, kernel_size=(1, 1), stride=(1, 1), bias=False
          (norm): FrozenBatchNorm2d(num_features=512, eps=1e-05)
        )
        (conv2): Conv2d(
          512, 512, kernel_size=(3, 3), stride=(1, 1), padding=(1, 1), bias=False
          (norm): FrozenBatchNorm2d(num_features=512, eps=1e-05)
        )
        (conv3): Conv2d(
          512, 2048, kernel_size=(1, 1), stride=(1, 1), bias=False
          (norm): FrozenBatchNorm2d(num_features=2048, eps=1e-05)
        )
      )
      (2): BottleneckBlock(
        (conv1): Conv2d(
          2048, 512, kernel_size=(1, 1), stride=(1, 1), bias=False
          (norm): FrozenBatchNorm2d(num_features=512, eps=1e-05)
        )
        (conv2): Conv2d(
          512, 512, kernel_size=(3, 3), stride=(1, 1), padding=(1, 1), bias=False
          (norm): FrozenBatchNorm2d(num_features=512, eps=1e-05)
        )
        (conv3): Conv2d(
          512, 2048, kernel_size=(1, 1), stride=(1, 1), bias=False
          (norm): FrozenBatchNorm2d(num_features=2048, eps=1e-05)
        )
      )
    )
  )
  (position_embedding): PositionEmbeddingSine()
  (neck): ChannelMapper(
    (convs): ModuleList(
      (0): ConvNormAct(
        (conv): Conv2d(512, 256, kernel_size=(1, 1), stride=(1, 1))
        (norm): GroupNorm(32, 256, eps=1e-05, affine=True)
      )
      (1): ConvNormAct(
        (conv): Conv2d(1024, 256, kernel_size=(1, 1), stride=(1, 1))
        (norm): GroupNorm(32, 256, eps=1e-05, affine=True)
      )
      (2): ConvNormAct(
        (conv): Conv2d(2048, 256, kernel_size=(1, 1), stride=(1, 1))
        (norm): GroupNorm(32, 256, eps=1e-05, affine=True)
      )
    )
    (extra_convs): ModuleList(
      (0): ConvNormAct(
        (conv): Conv2d(2048, 256, kernel_size=(3, 3), stride=(2, 2), padding=(1, 1))
        (norm): GroupNorm(32, 256, eps=1e-05, affine=True)
      )
    )
  )
  (transformer): FOCUS_DETRTransformer(
    (encoder): FOCUS_DETRTransformerEncoder(
      (layers): ModuleList(
        (0): Focus_DETR_BaseTransformerLayer(
          (attentions): ModuleList(
            (0): MultiheadAttention(
              (attn): MultiheadAttention(
                (out_proj): NonDynamicallyQuantizableLinear(in_features=256, out_features=256, bias=True)
              )
              (proj_drop): Dropout(p=0.0, inplace=False)
            )
            (1): MultiScaleDeformableAttention(
              (dropout): Dropout(p=0.0, inplace=False)
              (sampling_offsets): Linear(in_features=256, out_features=256, bias=True)
              (attention_weights): Linear(in_features=256, out_features=128, bias=True)
              (value_proj): Linear(in_features=256, out_features=256, bias=True)
              (output_proj): Linear(in_features=256, out_features=256, bias=True)
            )
          )
          (ffns): ModuleList(
            (0): FFN(
              (activation): ReLU(inplace=True)
              (layers): Sequential(
                (0): Sequential(
                  (0): Linear(in_features=256, out_features=2048, bias=True)
                  (1): ReLU(inplace=True)
                  (2): Dropout(p=0.0, inplace=False)
                )
                (1): Linear(in_features=2048, out_features=256, bias=True)
                (2): Dropout(p=0.0, inplace=False)
              )
            )
          )
          (norms): ModuleList(
            (0): LayerNorm((256,), eps=1e-05, elementwise_affine=True)
            (1): LayerNorm((256,), eps=1e-05, elementwise_affine=True)
          )
          (norm2): LayerNorm((256,), eps=1e-05, elementwise_affine=True)
        )
        (1): Focus_DETR_BaseTransformerLayer(
          (attentions): ModuleList(
            (0): MultiheadAttention(
              (attn): MultiheadAttention(
                (out_proj): NonDynamicallyQuantizableLinear(in_features=256, out_features=256, bias=True)
              )
              (proj_drop): Dropout(p=0.0, inplace=False)
            )
            (1): MultiScaleDeformableAttention(
              (dropout): Dropout(p=0.0, inplace=False)
              (sampling_offsets): Linear(in_features=256, out_features=256, bias=True)
              (attention_weights): Linear(in_features=256, out_features=128, bias=True)
              (value_proj): Linear(in_features=256, out_features=256, bias=True)
              (output_proj): Linear(in_features=256, out_features=256, bias=True)
            )
          )
          (ffns): ModuleList(
            (0): FFN(
              (activation): ReLU(inplace=True)
              (layers): Sequential(
                (0): Sequential(
                  (0): Linear(in_features=256, out_features=2048, bias=True)
                  (1): ReLU(inplace=True)
                  (2): Dropout(p=0.0, inplace=False)
                )
                (1): Linear(in_features=2048, out_features=256, bias=True)
                (2): Dropout(p=0.0, inplace=False)
              )
            )
          )
          (norms): ModuleList(
            (0): LayerNorm((256,), eps=1e-05, elementwise_affine=True)
            (1): LayerNorm((256,), eps=1e-05, elementwise_affine=True)
          )
          (norm2): LayerNorm((256,), eps=1e-05, elementwise_affine=True)
        )
        (2): Focus_DETR_BaseTransformerLayer(
          (attentions): ModuleList(
            (0): MultiheadAttention(
              (attn): MultiheadAttention(
                (out_proj): NonDynamicallyQuantizableLinear(in_features=256, out_features=256, bias=True)
              )
              (proj_drop): Dropout(p=0.0, inplace=False)
            )
            (1): MultiScaleDeformableAttention(
              (dropout): Dropout(p=0.0, inplace=False)
              (sampling_offsets): Linear(in_features=256, out_features=256, bias=True)
              (attention_weights): Linear(in_features=256, out_features=128, bias=True)
              (value_proj): Linear(in_features=256, out_features=256, bias=True)
              (output_proj): Linear(in_features=256, out_features=256, bias=True)
            )
          )
          (ffns): ModuleList(
            (0): FFN(
              (activation): ReLU(inplace=True)
              (layers): Sequential(
                (0): Sequential(
                  (0): Linear(in_features=256, out_features=2048, bias=True)
                  (1): ReLU(inplace=True)
                  (2): Dropout(p=0.0, inplace=False)
                )
                (1): Linear(in_features=2048, out_features=256, bias=True)
                (2): Dropout(p=0.0, inplace=False)
              )
            )
          )
          (norms): ModuleList(
            (0): LayerNorm((256,), eps=1e-05, elementwise_affine=True)
            (1): LayerNorm((256,), eps=1e-05, elementwise_affine=True)
          )
          (norm2): LayerNorm((256,), eps=1e-05, elementwise_affine=True)
        )
        (3): Focus_DETR_BaseTransformerLayer(
          (attentions): ModuleList(
            (0): MultiheadAttention(
              (attn): MultiheadAttention(
                (out_proj): NonDynamicallyQuantizableLinear(in_features=256, out_features=256, bias=True)
              )
              (proj_drop): Dropout(p=0.0, inplace=False)
            )
            (1): MultiScaleDeformableAttention(
              (dropout): Dropout(p=0.0, inplace=False)
              (sampling_offsets): Linear(in_features=256, out_features=256, bias=True)
              (attention_weights): Linear(in_features=256, out_features=128, bias=True)
              (value_proj): Linear(in_features=256, out_features=256, bias=True)
              (output_proj): Linear(in_features=256, out_features=256, bias=True)
            )
          )
          (ffns): ModuleList(
            (0): FFN(
              (activation): ReLU(inplace=True)
              (layers): Sequential(
                (0): Sequential(
                  (0): Linear(in_features=256, out_features=2048, bias=True)
                  (1): ReLU(inplace=True)
                  (2): Dropout(p=0.0, inplace=False)
                )
                (1): Linear(in_features=2048, out_features=256, bias=True)
                (2): Dropout(p=0.0, inplace=False)
              )
            )
          )
          (norms): ModuleList(
            (0): LayerNorm((256,), eps=1e-05, elementwise_affine=True)
            (1): LayerNorm((256,), eps=1e-05, elementwise_affine=True)
          )
          (norm2): LayerNorm((256,), eps=1e-05, elementwise_affine=True)
        )
        (4): Focus_DETR_BaseTransformerLayer(
          (attentions): ModuleList(
            (0): MultiheadAttention(
              (attn): MultiheadAttention(
                (out_proj): NonDynamicallyQuantizableLinear(in_features=256, out_features=256, bias=True)
              )
              (proj_drop): Dropout(p=0.0, inplace=False)
            )
            (1): MultiScaleDeformableAttention(
              (dropout): Dropout(p=0.0, inplace=False)
              (sampling_offsets): Linear(in_features=256, out_features=256, bias=True)
              (attention_weights): Linear(in_features=256, out_features=128, bias=True)
              (value_proj): Linear(in_features=256, out_features=256, bias=True)
              (output_proj): Linear(in_features=256, out_features=256, bias=True)
            )
          )
          (ffns): ModuleList(
            (0): FFN(
              (activation): ReLU(inplace=True)
              (layers): Sequential(
                (0): Sequential(
                  (0): Linear(in_features=256, out_features=2048, bias=True)
                  (1): ReLU(inplace=True)
                  (2): Dropout(p=0.0, inplace=False)
                )
                (1): Linear(in_features=2048, out_features=256, bias=True)
                (2): Dropout(p=0.0, inplace=False)
              )
            )
          )
          (norms): ModuleList(
            (0): LayerNorm((256,), eps=1e-05, elementwise_affine=True)
            (1): LayerNorm((256,), eps=1e-05, elementwise_affine=True)
          )
          (norm2): LayerNorm((256,), eps=1e-05, elementwise_affine=True)
        )
        (5): Focus_DETR_BaseTransformerLayer(
          (attentions): ModuleList(
            (0): MultiheadAttention(
              (attn): MultiheadAttention(
                (out_proj): NonDynamicallyQuantizableLinear(in_features=256, out_features=256, bias=True)
              )
              (proj_drop): Dropout(p=0.0, inplace=False)
            )
            (1): MultiScaleDeformableAttention(
              (dropout): Dropout(p=0.0, inplace=False)
              (sampling_offsets): Linear(in_features=256, out_features=256, bias=True)
              (attention_weights): Linear(in_features=256, out_features=128, bias=True)
              (value_proj): Linear(in_features=256, out_features=256, bias=True)
              (output_proj): Linear(in_features=256, out_features=256, bias=True)
            )
          )
          (ffns): ModuleList(
            (0): FFN(
              (activation): ReLU(inplace=True)
              (layers): Sequential(
                (0): Sequential(
                  (0): Linear(in_features=256, out_features=2048, bias=True)
                  (1): ReLU(inplace=True)
                  (2): Dropout(p=0.0, inplace=False)
                )
                (1): Linear(in_features=2048, out_features=256, bias=True)
                (2): Dropout(p=0.0, inplace=False)
              )
            )
          )
          (norms): ModuleList(
            (0): LayerNorm((256,), eps=1e-05, elementwise_affine=True)
            (1): LayerNorm((256,), eps=1e-05, elementwise_affine=True)
          )
          (norm2): LayerNorm((256,), eps=1e-05, elementwise_affine=True)
        )
      )
      (enhance_MCSP): ModuleList(
        (0): Linear(in_features=256, out_features=80, bias=True)
        (1): Linear(in_features=256, out_features=80, bias=True)
        (2): Linear(in_features=256, out_features=80, bias=True)
        (3): Linear(in_features=256, out_features=80, bias=True)
        (4): Linear(in_features=256, out_features=80, bias=True)
        (5): Linear(in_features=256, out_features=80, bias=True)
      )
    )
    (decoder): FOCUS_DETRTransformerDecoder(
      (layers): ModuleList(
        (0): BaseTransformerLayer(
          (attentions): ModuleList(
            (0): MultiheadAttention(
              (attn): MultiheadAttention(
                (out_proj): NonDynamicallyQuantizableLinear(in_features=256, out_features=256, bias=True)
              )
              (proj_drop): Dropout(p=0.0, inplace=False)
            )
            (1): MultiScaleDeformableAttention(
              (dropout): Dropout(p=0.0, inplace=False)
              (sampling_offsets): Linear(in_features=256, out_features=256, bias=True)
              (attention_weights): Linear(in_features=256, out_features=128, bias=True)
              (value_proj): Linear(in_features=256, out_features=256, bias=True)
              (output_proj): Linear(in_features=256, out_features=256, bias=True)
            )
          )
          (ffns): ModuleList(
            (0): FFN(
              (activation): ReLU(inplace=True)
              (layers): Sequential(
                (0): Sequential(
                  (0): Linear(in_features=256, out_features=2048, bias=True)
                  (1): ReLU(inplace=True)
                  (2): Dropout(p=0.0, inplace=False)
                )
                (1): Linear(in_features=2048, out_features=256, bias=True)
                (2): Dropout(p=0.0, inplace=False)
              )
            )
          )
          (norms): ModuleList(
            (0): LayerNorm((256,), eps=1e-05, elementwise_affine=True)
            (1): LayerNorm((256,), eps=1e-05, elementwise_affine=True)
            (2): LayerNorm((256,), eps=1e-05, elementwise_affine=True)
          )
        )
        (1): BaseTransformerLayer(
          (attentions): ModuleList(
            (0): MultiheadAttention(
              (attn): MultiheadAttention(
                (out_proj): NonDynamicallyQuantizableLinear(in_features=256, out_features=256, bias=True)
              )
              (proj_drop): Dropout(p=0.0, inplace=False)
            )
            (1): MultiScaleDeformableAttention(
              (dropout): Dropout(p=0.0, inplace=False)
              (sampling_offsets): Linear(in_features=256, out_features=256, bias=True)
              (attention_weights): Linear(in_features=256, out_features=128, bias=True)
              (value_proj): Linear(in_features=256, out_features=256, bias=True)
              (output_proj): Linear(in_features=256, out_features=256, bias=True)
            )
          )
          (ffns): ModuleList(
            (0): FFN(
              (activation): ReLU(inplace=True)
              (layers): Sequential(
                (0): Sequential(
                  (0): Linear(in_features=256, out_features=2048, bias=True)
                  (1): ReLU(inplace=True)
                  (2): Dropout(p=0.0, inplace=False)
                )
                (1): Linear(in_features=2048, out_features=256, bias=True)
                (2): Dropout(p=0.0, inplace=False)
              )
            )
          )
          (norms): ModuleList(
            (0): LayerNorm((256,), eps=1e-05, elementwise_affine=True)
            (1): LayerNorm((256,), eps=1e-05, elementwise_affine=True)
            (2): LayerNorm((256,), eps=1e-05, elementwise_affine=True)
          )
        )
        (2): BaseTransformerLayer(
          (attentions): ModuleList(
            (0): MultiheadAttention(
              (attn): MultiheadAttention(
                (out_proj): NonDynamicallyQuantizableLinear(in_features=256, out_features=256, bias=True)
              )
              (proj_drop): Dropout(p=0.0, inplace=False)
            )
            (1): MultiScaleDeformableAttention(
              (dropout): Dropout(p=0.0, inplace=False)
              (sampling_offsets): Linear(in_features=256, out_features=256, bias=True)
              (attention_weights): Linear(in_features=256, out_features=128, bias=True)
              (value_proj): Linear(in_features=256, out_features=256, bias=True)
              (output_proj): Linear(in_features=256, out_features=256, bias=True)
            )
          )
          (ffns): ModuleList(
            (0): FFN(
              (activation): ReLU(inplace=True)
              (layers): Sequential(
                (0): Sequential(
                  (0): Linear(in_features=256, out_features=2048, bias=True)
                  (1): ReLU(inplace=True)
                  (2): Dropout(p=0.0, inplace=False)
                )
                (1): Linear(in_features=2048, out_features=256, bias=True)
                (2): Dropout(p=0.0, inplace=False)
              )
            )
          )
          (norms): ModuleList(
            (0): LayerNorm((256,), eps=1e-05, elementwise_affine=True)
            (1): LayerNorm((256,), eps=1e-05, elementwise_affine=True)
            (2): LayerNorm((256,), eps=1e-05, elementwise_affine=True)
          )
        )
        (3): BaseTransformerLayer(
          (attentions): ModuleList(
            (0): MultiheadAttention(
              (attn): MultiheadAttention(
                (out_proj): NonDynamicallyQuantizableLinear(in_features=256, out_features=256, bias=True)
              )
              (proj_drop): Dropout(p=0.0, inplace=False)
            )
            (1): MultiScaleDeformableAttention(
              (dropout): Dropout(p=0.0, inplace=False)
              (sampling_offsets): Linear(in_features=256, out_features=256, bias=True)
              (attention_weights): Linear(in_features=256, out_features=128, bias=True)
              (value_proj): Linear(in_features=256, out_features=256, bias=True)
              (output_proj): Linear(in_features=256, out_features=256, bias=True)
            )
          )
          (ffns): ModuleList(
            (0): FFN(
              (activation): ReLU(inplace=True)
              (layers): Sequential(
                (0): Sequential(
                  (0): Linear(in_features=256, out_features=2048, bias=True)
                  (1): ReLU(inplace=True)
                  (2): Dropout(p=0.0, inplace=False)
                )
                (1): Linear(in_features=2048, out_features=256, bias=True)
                (2): Dropout(p=0.0, inplace=False)
              )
            )
          )
          (norms): ModuleList(
            (0): LayerNorm((256,), eps=1e-05, elementwise_affine=True)
            (1): LayerNorm((256,), eps=1e-05, elementwise_affine=True)
            (2): LayerNorm((256,), eps=1e-05, elementwise_affine=True)
          )
        )
        (4): BaseTransformerLayer(
          (attentions): ModuleList(
            (0): MultiheadAttention(
              (attn): MultiheadAttention(
                (out_proj): NonDynamicallyQuantizableLinear(in_features=256, out_features=256, bias=True)
              )
              (proj_drop): Dropout(p=0.0, inplace=False)
            )
            (1): MultiScaleDeformableAttention(
              (dropout): Dropout(p=0.0, inplace=False)
              (sampling_offsets): Linear(in_features=256, out_features=256, bias=True)
              (attention_weights): Linear(in_features=256, out_features=128, bias=True)
              (value_proj): Linear(in_features=256, out_features=256, bias=True)
              (output_proj): Linear(in_features=256, out_features=256, bias=True)
            )
          )
          (ffns): ModuleList(
            (0): FFN(
              (activation): ReLU(inplace=True)
              (layers): Sequential(
                (0): Sequential(
                  (0): Linear(in_features=256, out_features=2048, bias=True)
                  (1): ReLU(inplace=True)
                  (2): Dropout(p=0.0, inplace=False)
                )
                (1): Linear(in_features=2048, out_features=256, bias=True)
                (2): Dropout(p=0.0, inplace=False)
              )
            )
          )
          (norms): ModuleList(
            (0): LayerNorm((256,), eps=1e-05, elementwise_affine=True)
            (1): LayerNorm((256,), eps=1e-05, elementwise_affine=True)
            (2): LayerNorm((256,), eps=1e-05, elementwise_affine=True)
          )
        )
        (5): BaseTransformerLayer(
          (attentions): ModuleList(
            (0): MultiheadAttention(
              (attn): MultiheadAttention(
                (out_proj): NonDynamicallyQuantizableLinear(in_features=256, out_features=256, bias=True)
              )
              (proj_drop): Dropout(p=0.0, inplace=False)
            )
            (1): MultiScaleDeformableAttention(
              (dropout): Dropout(p=0.0, inplace=False)
              (sampling_offsets): Linear(in_features=256, out_features=256, bias=True)
              (attention_weights): Linear(in_features=256, out_features=128, bias=True)
              (value_proj): Linear(in_features=256, out_features=256, bias=True)
              (output_proj): Linear(in_features=256, out_features=256, bias=True)
            )
          )
          (ffns): ModuleList(
            (0): FFN(
              (activation): ReLU(inplace=True)
              (layers): Sequential(
                (0): Sequential(
                  (0): Linear(in_features=256, out_features=2048, bias=True)
                  (1): ReLU(inplace=True)
                  (2): Dropout(p=0.0, inplace=False)
                )
                (1): Linear(in_features=2048, out_features=256, bias=True)
                (2): Dropout(p=0.0, inplace=False)
              )
            )
          )
          (norms): ModuleList(
            (0): LayerNorm((256,), eps=1e-05, elementwise_affine=True)
            (1): LayerNorm((256,), eps=1e-05, elementwise_affine=True)
            (2): LayerNorm((256,), eps=1e-05, elementwise_affine=True)
          )
        )
      )
      (ref_point_head): MLP(
        (layers): ModuleList(
          (0): Linear(in_features=512, out_features=256, bias=True)
          (1): Linear(in_features=256, out_features=256, bias=True)
        )
      )
      (norm): LayerNorm((256,), eps=1e-05, elementwise_affine=True)
      (class_embed): ModuleList(
        (0): Linear(in_features=256, out_features=80, bias=True)
        (1): Linear(in_features=256, out_features=80, bias=True)
        (2): Linear(in_features=256, out_features=80, bias=True)
        (3): Linear(in_features=256, out_features=80, bias=True)
        (4): Linear(in_features=256, out_features=80, bias=True)
        (5): Linear(in_features=256, out_features=80, bias=True)
        (6): Linear(in_features=256, out_features=80, bias=True)
      )
      (bbox_embed): ModuleList(
        (0): MLP(
          (layers): ModuleList(
            (0): Linear(in_features=256, out_features=256, bias=True)
            (1): Linear(in_features=256, out_features=256, bias=True)
            (2): Linear(in_features=256, out_features=4, bias=True)
          )
        )
        (1): MLP(
          (layers): ModuleList(
            (0): Linear(in_features=256, out_features=256, bias=True)
            (1): Linear(in_features=256, out_features=256, bias=True)
            (2): Linear(in_features=256, out_features=4, bias=True)
          )
        )
        (2): MLP(
          (layers): ModuleList(
            (0): Linear(in_features=256, out_features=256, bias=True)
            (1): Linear(in_features=256, out_features=256, bias=True)
            (2): Linear(in_features=256, out_features=4, bias=True)
          )
        )
        (3): MLP(
          (layers): ModuleList(
            (0): Linear(in_features=256, out_features=256, bias=True)
            (1): Linear(in_features=256, out_features=256, bias=True)
            (2): Linear(in_features=256, out_features=4, bias=True)
          )
        )
        (4): MLP(
          (layers): ModuleList(
            (0): Linear(in_features=256, out_features=256, bias=True)
            (1): Linear(in_features=256, out_features=256, bias=True)
            (2): Linear(in_features=256, out_features=4, bias=True)
          )
        )
        (5): MLP(
          (layers): ModuleList(
            (0): Linear(in_features=256, out_features=256, bias=True)
            (1): Linear(in_features=256, out_features=256, bias=True)
            (2): Linear(in_features=256, out_features=4, bias=True)
          )
        )
        (6): MLP(
          (layers): ModuleList(
            (0): Linear(in_features=256, out_features=256, bias=True)
            (1): Linear(in_features=256, out_features=256, bias=True)
            (2): Linear(in_features=256, out_features=4, bias=True)
          )
        )
      )
    )
    (tgt_embed): Embedding(900, 256)
    (enc_output): Linear(in_features=256, out_features=256, bias=True)
    (enc_output_norm): LayerNorm((256,), eps=1e-05, elementwise_affine=True)
    (enc_mask_predictor): MaskPredictor(
      (layer1): Sequential(
        (0): LayerNorm((256,), eps=1e-05, elementwise_affine=True)
        (1): Linear(in_features=256, out_features=256, bias=True)
        (2): GELU(approximate=none)
      )
      (layer2): Sequential(
        (0): Linear(in_features=256, out_features=128, bias=True)
        (1): GELU(approximate=none)
        (2): Linear(in_features=128, out_features=64, bias=True)
        (3): GELU(approximate=none)
        (4): Linear(in_features=64, out_features=1, bias=True)
      )
    )
  )
  (class_embed): ModuleList(
    (0): Linear(in_features=256, out_features=80, bias=True)
    (1): Linear(in_features=256, out_features=80, bias=True)
    (2): Linear(in_features=256, out_features=80, bias=True)
    (3): Linear(in_features=256, out_features=80, bias=True)
    (4): Linear(in_features=256, out_features=80, bias=True)
    (5): Linear(in_features=256, out_features=80, bias=True)
    (6): Linear(in_features=256, out_features=80, bias=True)
  )
  (bbox_embed): ModuleList(
    (0): MLP(
      (layers): ModuleList(
        (0): Linear(in_features=256, out_features=256, bias=True)
        (1): Linear(in_features=256, out_features=256, bias=True)
        (2): Linear(in_features=256, out_features=4, bias=True)
      )
    )
    (1): MLP(
      (layers): ModuleList(
        (0): Linear(in_features=256, out_features=256, bias=True)
        (1): Linear(in_features=256, out_features=256, bias=True)
        (2): Linear(in_features=256, out_features=4, bias=True)
      )
    )
    (2): MLP(
      (layers): ModuleList(
        (0): Linear(in_features=256, out_features=256, bias=True)
        (1): Linear(in_features=256, out_features=256, bias=True)
        (2): Linear(in_features=256, out_features=4, bias=True)
      )
    )
    (3): MLP(
      (layers): ModuleList(
        (0): Linear(in_features=256, out_features=256, bias=True)
        (1): Linear(in_features=256, out_features=256, bias=True)
        (2): Linear(in_features=256, out_features=4, bias=True)
      )
    )
    (4): MLP(
      (layers): ModuleList(
        (0): Linear(in_features=256, out_features=256, bias=True)
        (1): Linear(in_features=256, out_features=256, bias=True)
        (2): Linear(in_features=256, out_features=4, bias=True)
      )
    )
    (5): MLP(
      (layers): ModuleList(
        (0): Linear(in_features=256, out_features=256, bias=True)
        (1): Linear(in_features=256, out_features=256, bias=True)
        (2): Linear(in_features=256, out_features=4, bias=True)
      )
    )
    (6): MLP(
      (layers): ModuleList(
        (0): Linear(in_features=256, out_features=256, bias=True)
        (1): Linear(in_features=256, out_features=256, bias=True)
        (2): Linear(in_features=256, out_features=4, bias=True)
      )
    )
  )
  (criterion): Criterion FOCUS_DETRCriterion
      matcher: Matcher HungarianMatcher
          cost_class: 2.0
          cost_bbox: 5.0
          cost_giou: 2.0
          cost_class_type: focal_loss_cost
          focal cost alpha: 0.25
          focal cost gamma: 2.0
      losses: ['class', 'boxes']
      loss_class_type: focal_loss
  
…
loss_giou_1': 2.0, 'loss_class_dn_1': 1, 'loss_bbox_dn_1': 5.0, 'loss_giou_dn_1': 2.0, 'loss_class_2': 1, 'loss_bbox_2': 5.0, 'loss_giou_2': 2.0, 'loss_class_dn_2': 1, 'loss_bbox_dn_2': 5.0, 'loss_giou_dn_2': 2.0, 'loss_class_3': 1, 'loss_bbox_3': 5.0, 'loss_giou_3': 2.0, 'loss_class_dn_3': 1, 'loss_bbox_dn_3': 5.0, 'loss_giou_dn_3': 2.0, 'loss_class_4': 1, 'loss_bbox_4': 5.0, 'loss_giou_4': 2.0, 'loss_class_dn_4': 1, 'loss_bbox_dn_4': 5.0, 'loss_giou_dn_4': 2.0, 'select_loss': 1.5}
      num_classes: 80
      eos_coef: None
      focal loss alpha: 0.25
      focal loss gamma: 2.0
  (label_enc): Embedding(80, 256)
  (enhance_MCSP_layerlist): ModuleList(
    (0): Linear(in_features=256, out_features=80, bias=True)
    (1): Linear(in_features=256, out_features=80, bias=True)
    (2): Linear(in_features=256, out_features=80, bias=True)
    (3): Linear(in_features=256, out_features=80, bias=True)
    (4): Linear(in_features=256, out_features=80, bias=True)
    (5): Linear(in_features=256, out_features=80, bias=True)
  )
)
FOCUS_DETR(
  (backbone): ResNet(
    (stem): BasicStem(
      (conv1): Conv2d(
        3, 64, kernel_size=(7, 7), stride=(2, 2), padding=(3, 3), bias=False
        (norm): FrozenBatchNorm2d(num_features=64, eps=1e-05)
      )
    )
    (res2): Sequential(
      (0): BottleneckBlock(
        (shortcut): Conv2d(
          64, 256, kernel_size=(1, 1), stride=(1, 1), bias=False
          (norm): FrozenBatchNorm2d(num_features=256, eps=1e-05)
        )
        (conv1): Conv2d(
          64, 64, kernel_size=(1, 1), stride=(1, 1), bias=False
          (norm): FrozenBatchNorm2d(num_features=64, eps=1e-05)
        )
        (conv2): Conv2d(
          64, 64, kernel_size=(3, 3), stride=(1, 1), padding=(1, 1), bias=False
          (norm): FrozenBatchNorm2d(num_features=64, eps=1e-05)
        )
        (conv3): Conv2d(
          64, 256, kernel_size=(1, 1), stride=(1, 1), bias=False
          (norm): FrozenBatchNorm2d(num_features=256, eps=1e-05)
        )
      )
      (1): BottleneckBlock(
        (conv1): Conv2d(
          256, 64, kernel_size=(1, 1), stride=(1, 1), bias=False
          (norm): FrozenBatchNorm2d(num_features=64, eps=1e-05)
        )
        (conv2): Conv2d(
          64, 64, kernel_size=(3, 3), stride=(1, 1), padding=(1, 1), bias=False
          (norm): FrozenBatchNorm2d(num_features=64, eps=1e-05)
        )
        (conv3): Conv2d(
          64, 256, kernel_size=(1, 1), stride=(1, 1), bias=False
          (norm): FrozenBatchNorm2d(num_features=256, eps=1e-05)
        )
      )
      (2): BottleneckBlock(
        (conv1): Conv2d(
          256, 64, kernel_size=(1, 1), stride=(1, 1), bias=False
          (norm): FrozenBatchNorm2d(num_features=64, eps=1e-05)
        )
        (conv2): Conv2d(
          64, 64, kernel_size=(3, 3), stride=(1, 1), padding=(1, 1), bias=False
          (norm): FrozenBatchNorm2d(num_features=64, eps=1e-05)
        )
        (conv3): Conv2d(
          64, 256, kernel_size=(1, 1), stride=(1, 1), bias=False
          (norm): FrozenBatchNorm2d(num_features=256, eps=1e-05)
        )
      )
    )
    (res3): Sequential(
      (0): BottleneckBlock(
        (shortcut): Conv2d(
          256, 512, kernel_size=(1, 1), stride=(2, 2), bias=False
          (norm): FrozenBatchNorm2d(num_features=512, eps=1e-05)
        )
        (conv1): Conv2d(
          256, 128, kernel_size=(1, 1), stride=(1, 1), bias=False
          (norm): FrozenBatchNorm2d(num_features=128, eps=1e-05)
        )
        (conv2): Conv2d(
          128, 128, kernel_size=(3, 3), stride=(2, 2), padding=(1, 1), bias=False
          (norm): FrozenBatchNorm2d(num_features=128, eps=1e-05)
        )
        (conv3): Conv2d(
          128, 512, kernel_size=(1, 1), stride=(1, 1), bias=False
          (norm): FrozenBatchNorm2d(num_features=512, eps=1e-05)
        )
      )
      (1): BottleneckBlock(
        (conv1): Conv2d(
          512, 128, kernel_size=(1, 1), stride=(1, 1), bias=False
          (norm): FrozenBatchNorm2d(num_features=128, eps=1e-05)
        )
        (conv2): Conv2d(
          128, 128, kernel_size=(3, 3), stride=(1, 1), padding=(1, 1), bias=False
          (norm): FrozenBatchNorm2d(num_features=128, eps=1e-05)
        )
        (conv3): Conv2d(
          128, 512, kernel_size=(1, 1), stride=(1, 1), bias=False
          (norm): FrozenBatchNorm2d(num_features=512, eps=1e-05)
        )
      )
      (2): BottleneckBlock(
        (conv1): Conv2d(
          512, 128, kernel_size=(1, 1), stride=(1, 1), bias=False
          (norm): FrozenBatchNorm2d(num_features=128, eps=1e-05)
        )
        (conv2): Conv2d(
          128, 128, kernel_size=(3, 3), stride=(1, 1), padding=(1, 1), bias=False
          (norm): FrozenBatchNorm2d(num_features=128, eps=1e-05)
        )
        (conv3): Conv2d(
          128, 512, kernel_size=(1, 1), stride=(1, 1), bias=False
          (norm): FrozenBatchNorm2d(num_features=512, eps=1e-05)
        )
      )
      (3): BottleneckBlock(
        (conv1): Conv2d(
          512, 128, kernel_size=(1, 1), stride=(1, 1), bias=False
          (norm): FrozenBatchNorm2d(num_features=128, eps=1e-05)
        )
        (conv2): Conv2d(
          128, 128, kernel_size=(3, 3), stride=(1, 1), padding=(1, 1), bias=False
          (norm): FrozenBatchNorm2d(num_features=128, eps=1e-05)
        )
        (conv3): Conv2d(
          128, 512, kernel_size=(1, 1), stride=(1, 1), bias=False
          (norm): FrozenBatchNorm2d(num_features=512, eps=1e-05)
        )
      )
    )
    (res4): Sequential(
      (0): BottleneckBlock(
        (shortcut): Conv2d(
          512, 1024, kernel_size=(1, 1), stride=(2, 2), bias=False
          (norm): FrozenBatchNorm2d(num_features=1024, eps=1e-05)
        )
        (conv1): Conv2d(
          512, 256, kernel_size=(1, 1), stride=(1, 1), bias=False
          (norm): FrozenBatchNorm2d(num_features=256, eps=1e-05)
        )
        (conv2): Conv2d(
          256, 256, kernel_size=(3, 3), stride=(2, 2), padding=(1, 1), bias=False
          (norm): FrozenBatchNorm2d(num_features=256, eps=1e-05)
        )
        (conv3): Conv2d(
          256, 1024, kernel_size=(1, 1), stride=(1, 1), bias=False
          (norm): FrozenBatchNorm2d(num_features=1024, eps=1e-05)
        )
      )
      (1): BottleneckBlock(
        (conv1): Conv2d(
          1024, 256, kernel_size=(1, 1), stride=(1, 1), bias=False
          (norm): FrozenBatchNorm2d(num_features=256, eps=1e-05)
        )
        (conv2): Conv2d(
          256, 256, kernel_size=(3, 3), stride=(1, 1), padding=(1, 1), bias=False
          (norm): FrozenBatchNorm2d(num_features=256, eps=1e-05)
        )
        (conv3): Conv2d(
          256, 1024, kernel_size=(1, 1), stride=(1, 1), bias=False
          (norm): FrozenBatchNorm2d(num_features=1024, eps=1e-05)
        )
      )
      (2): BottleneckBlock(
        (conv1): Conv2d(
          1024, 256, kernel_size=(1, 1), stride=(1, 1), bias=False
          (norm): FrozenBatchNorm2d(num_features=256, eps=1e-05)
        )
        (conv2): Conv2d(
          256, 256, kernel_size=(3, 3), stride=(1, 1), padding=(1, 1), bias=False
          (norm): FrozenBatchNorm2d(num_features=256, eps=1e-05)
        )
        (conv3): Conv2d(
          256, 1024, kernel_size=(1, 1), stride=(1, 1), bias=False
          (norm): FrozenBatchNorm2d(num_features=1024, eps=1e-05)
        )
      )
      (3): BottleneckBlock(
        (conv1): Conv2d(
          1024, 256, kernel_size=(1, 1), stride=(1, 1), bias=False
          (norm): FrozenBatchNorm2d(num_features=256, eps=1e-05)
        )
        (conv2): Conv2d(
          256, 256, kernel_size=(3, 3), stride=(1, 1), padding=(1, 1), bias=False
          (norm): FrozenBatchNorm2d(num_features=256, eps=1e-05)
        )
        (conv3): Conv2d(
          256, 1024, kernel_size=(1, 1), stride=(1, 1), bias=False
          (norm): FrozenBatchNorm2d(num_features=1024, eps=1e-05)
        )
      )
      (4): BottleneckBlock(
        (conv1): Conv2d(
          1024, 256, kernel_size=(1, 1), stride=(1, 1), bias=False
          (norm): FrozenBatchNorm2d(num_features=256, eps=1e-05)
        )
        (conv2): Conv2d(
          256, 256, kernel_size=(3, 3), stride=(1, 1), padding=(1, 1), bias=False
          (norm): FrozenBatchNorm2d(num_features=256, eps=1e-05)
        )
        (conv3): Conv2d(
          256, 1024, kernel_size=(1, 1), stride=(1, 1), bias=False
          (norm): FrozenBatchNorm2d(num_features=1024, eps=1e-05)
        )
      )
      (5): BottleneckBlock(
        (conv1): Conv2d(
          1024, 256, kernel_size=(1, 1), stride=(1, 1), bias=False
          (norm): FrozenBatchNorm2d(num_features=256, eps=1e-05)
        )
        (conv2): Conv2d(
          256, 256, kernel_size=(3, 3), stride=(1, 1), padding=(1, 1), bias=False
          (norm): FrozenBatchNorm2d(num_features=256, eps=1e-05)
        )
        (conv3): Conv2d(
          256, 1024, kernel_size=(1, 1), stride=(1, 1), bias=False
          (norm): FrozenBatchNorm2d(num_features=1024, eps=1e-05)
        )
      )
    )
    (res5): Sequential(
      (0): BottleneckBlock(
        (shortcut): Conv2d(
          1024, 2048, kernel_size=(1, 1), stride=(2, 2), bias=False
          (norm): FrozenBatchNorm2d(num_features=2048, eps=1e-05)
        )
        (conv1): Conv2d(
          1024, 512, kernel_size=(1, 1), stride=(1, 1), bias=False
          (norm): FrozenBatchNorm2d(num_features=512, eps=1e-05)
        )
        (conv2): Conv2d(
          512, 512, kernel_size=(3, 3), stride=(2, 2), padding=(1, 1), bias=False
          (norm): FrozenBatchNorm2d(num_features=512, eps=1e-05)
        )
        (conv3): Conv2d(
          512, 2048, kernel_size=(1, 1), stride=(1, 1), bias=False
          (norm): FrozenBatchNorm2d(num_features=2048, eps=1e-05)
        )
      )
      (1): BottleneckBlock(
        (conv1): Conv2d(
          2048, 512, kernel_size=(1, 1), stride=(1, 1), bias=False
          (norm): FrozenBatchNorm2d(num_features=512, eps=1e-05)
        )
        (conv2): Conv2d(
          512, 512, kernel_size=(3, 3), stride=(1, 1), padding=(1, 1), bias=False
          (norm): FrozenBatchNorm2d(num_features=512, eps=1e-05)
        )
        (conv3): Conv2d(
          512, 2048, kernel_size=(1, 1), stride=(1, 1), bias=False
          (norm): FrozenBatchNorm2d(num_features=2048, eps=1e-05)
        )
      )
      (2): BottleneckBlock(
        (conv1): Conv2d(
          2048, 512, kernel_size=(1, 1), stride=(1, 1), bias=False
          (norm): FrozenBatchNorm2d(num_features=512, eps=1e-05)
        )
        (conv2): Conv2d(
          512, 512, kernel_size=(3, 3), stride=(1, 1), padding=(1, 1), bias=False
          (norm): FrozenBatchNorm2d(num_features=512, eps=1e-05)
        )
        (conv3): Conv2d(
          512, 2048, kernel_size=(1, 1), stride=(1, 1), bias=False
          (norm): FrozenBatchNorm2d(num_features=2048, eps=1e-05)
        )
      )
    )
  )
  (position_embedding): PositionEmbeddingSine()
  (neck): ChannelMapper(
    (convs): ModuleList(
      (0): ConvNormAct(
        (conv): Conv2d(512, 256, kernel_size=(1, 1), stride=(1, 1))
        (norm): GroupNorm(32, 256, eps=1e-05, affine=True)
      )
      (1): ConvNormAct(
        (conv): Conv2d(1024, 256, kernel_size=(1, 1), stride=(1, 1))
        (norm): GroupNorm(32, 256, eps=1e-05, affine=True)
      )
      (2): ConvNormAct(
        (conv): Conv2d(2048, 256, kernel_size=(1, 1), stride=(1, 1))
        (norm): GroupNorm(32, 256, eps=1e-05, affine=True)
      )
    )
    (extra_convs): ModuleList(
      (0): ConvNormAct(
        (conv): Conv2d(2048, 256, kernel_size=(3, 3), stride=(2, 2), padding=(1, 1))
        (norm): GroupNorm(32, 256, eps=1e-05, affine=True)
      )
    )
  )
  (transformer): FOCUS_DETRTransformer(
    (encoder): FOCUS_DETRTransformerEncoder(
      (layers): ModuleList(
        (0): Focus_DETR_BaseTransformerLayer(
          (attentions): ModuleList(
            (0): MultiheadAttention(
              (attn): MultiheadAttention(
                (out_proj): NonDynamicallyQuantizableLinear(in_features=256, out_features=256, bias=True)
              )
              (proj_drop): Dropout(p=0.0, inplace=False)
            )
            (1): MultiScaleDeformableAttention(
              (dropout): Dropout(p=0.0, inplace=False)
              (sampling_offsets): Linear(in_features=256, out_features=256, bias=True)
              (attention_weights): Linear(in_features=256, out_features=128, bias=True)
              (value_proj): Linear(in_features=256, out_features=256, bias=True)
              (output_proj): Linear(in_features=256, out_features=256, bias=True)
            )
          )
          (ffns): ModuleList(
            (0): FFN(
              (activation): ReLU(inplace=True)
              (layers): Sequential(
                (0): Sequential(
                  (0): Linear(in_features=256, out_features=2048, bias=True)
                  (1): ReLU(inplace=True)
                  (2): Dropout(p=0.0, inplace=False)
                )
                (1): Linear(in_features=2048, out_features=256, bias=True)
                (2): Dropout(p=0.0, inplace=False)
              )
            )
          )
          (norms): ModuleList(
            (0): LayerNorm((256,), eps=1e-05, elementwise_affine=True)
            (1): LayerNorm((256,), eps=1e-05, elementwise_affine=True)
          )
          (norm2): LayerNorm((256,), eps=1e-05, elementwise_affine=True)
        )
        (1): Focus_DETR_BaseTransformerLayer(
          (attentions): ModuleList(
            (0): MultiheadAttention(
              (attn): MultiheadAttention(
                (out_proj): NonDynamicallyQuantizableLinear(in_features=256, out_features=256, bias=True)
              )
              (proj_drop): Dropout(p=0.0, inplace=False)
            )
            (1): MultiScaleDeformableAttention(
              (dropout): Dropout(p=0.0, inplace=False)
              (sampling_offsets): Linear(in_features=256, out_features=256, bias=True)
              (attention_weights): Linear(in_features=256, out_features=128, bias=True)
              (value_proj): Linear(in_features=256, out_features=256, bias=True)
              (output_proj): Linear(in_features=256, out_features=256, bias=True)
            )
          )
          (ffns): ModuleList(
            (0): FFN(
              (activation): ReLU(inplace=True)
              (layers): Sequential(
                (0): Sequential(
                  (0): Linear(in_features=256, out_features=2048, bias=True)
                  (1): ReLU(inplace=True)
                  (2): Dropout(p=0.0, inplace=False)
                )
                (1): Linear(in_features=2048, out_features=256, bias=True)
                (2): Dropout(p=0.0, inplace=False)
              )
            )
          )
          (norms): ModuleList(
            (0): LayerNorm((256,), eps=1e-05, elementwise_affine=True)
            (1): LayerNorm((256,), eps=1e-05, elementwise_affine=True)
          )
          (norm2): LayerNorm((256,), eps=1e-05, elementwise_affine=True)
        )
        (2): Focus_DETR_BaseTransformerLayer(
          (attentions): ModuleList(
            (0): MultiheadAttention(
              (attn): MultiheadAttention(
                (out_proj): NonDynamicallyQuantizableLinear(in_features=256, out_features=256, bias=True)
              )
              (proj_drop): Dropout(p=0.0, inplace=False)
            )
            (1): MultiScaleDeformableAttention(
              (dropout): Dropout(p=0.0, inplace=False)
              (sampling_offsets): Linear(in_features=256, out_features=256, bias=True)
              (attention_weights): Linear(in_features=256, out_features=128, bias=True)
              (value_proj): Linear(in_features=256, out_features=256, bias=True)
              (output_proj): Linear(in_features=256, out_features=256, bias=True)
            )
          )
          (ffns): ModuleList(
            (0): FFN(
              (activation): ReLU(inplace=True)
              (layers): Sequential(
                (0): Sequential(
                  (0): Linear(in_features=256, out_features=2048, bias=True)
                  (1): ReLU(inplace=True)
                  (2): Dropout(p=0.0, inplace=False)
                )
                (1): Linear(in_features=2048, out_features=256, bias=True)
                (2): Dropout(p=0.0, inplace=False)
              )
            )
          )
          (norms): ModuleList(
            (0): LayerNorm((256,), eps=1e-05, elementwise_affine=True)
            (1): LayerNorm((256,), eps=1e-05, elementwise_affine=True)
          )
          (norm2): LayerNorm((256,), eps=1e-05, elementwise_affine=True)
        )
        (3): Focus_DETR_BaseTransformerLayer(
          (attentions): ModuleList(
            (0): MultiheadAttention(
              (attn): MultiheadAttention(
                (out_proj): NonDynamicallyQuantizableLinear(in_features=256, out_features=256, bias=True)
              )
              (proj_drop): Dropout(p=0.0, inplace=False)
            )
            (1): MultiScaleDeformableAttention(
              (dropout): Dropout(p=0.0, inplace=False)
              (sampling_offsets): Linear(in_features=256, out_features=256, bias=True)
              (attention_weights): Linear(in_features=256, out_features=128, bias=True)
              (value_proj): Linear(in_features=256, out_features=256, bias=True)
              (output_proj): Linear(in_features=256, out_features=256, bias=True)
            )
          )
          (ffns): ModuleList(
            (0): FFN(
              (activation): ReLU(inplace=True)
              (layers): Sequential(
                (0): Sequential(
                  (0): Linear(in_features=256, out_features=2048, bias=True)
                  (1): ReLU(inplace=True)
                  (2): Dropout(p=0.0, inplace=False)
                )
                (1): Linear(in_features=2048, out_features=256, bias=True)
                (2): Dropout(p=0.0, inplace=False)
              )
            )
          )
          (norms): ModuleList(
            (0): LayerNorm((256,), eps=1e-05, elementwise_affine=True)
            (1): LayerNorm((256,), eps=1e-05, elementwise_affine=True)
          )
          (norm2): LayerNorm((256,), eps=1e-05, elementwise_affine=True)
        )
        (4): Focus_DETR_BaseTransformerLayer(
          (attentions): ModuleList(
            (0): MultiheadAttention(
              (attn): MultiheadAttention(
                (out_proj): NonDynamicallyQuantizableLinear(in_features=256, out_features=256, bias=True)
              )
              (proj_drop): Dropout(p=0.0, inplace=False)
            )
            (1): MultiScaleDeformableAttention(
              (dropout): Dropout(p=0.0, inplace=False)
              (sampling_offsets): Linear(in_features=256, out_features=256, bias=True)
              (attention_weights): Linear(in_features=256, out_features=128, bias=True)
              (value_proj): Linear(in_features=256, out_features=256, bias=True)
              (output_proj): Linear(in_features=256, out_features=256, bias=True)
            )
          )
          (ffns): ModuleList(
            (0): FFN(
              (activation): ReLU(inplace=True)
              (layers): Sequential(
                (0): Sequential(
                  (0): Linear(in_features=256, out_features=2048, bias=True)
                  (1): ReLU(inplace=True)
                  (2): Dropout(p=0.0, inplace=False)
                )
                (1): Linear(in_features=2048, out_features=256, bias=True)
                (2): Dropout(p=0.0, inplace=False)
              )
            )
          )
          (norms): ModuleList(
            (0): LayerNorm((256,), eps=1e-05, elementwise_affine=True)
            (1): LayerNorm((256,), eps=1e-05, elementwise_affine=True)
          )
          (norm2): LayerNorm((256,), eps=1e-05, elementwise_affine=True)
        )
        (5): Focus_DETR_BaseTransformerLayer(
          (attentions): ModuleList(
            (0): MultiheadAttention(
              (attn): MultiheadAttention(
                (out_proj): NonDynamicallyQuantizableLinear(in_features=256, out_features=256, bias=True)
              )
              (proj_drop): Dropout(p=0.0, inplace=False)
            )
            (1): MultiScaleDeformableAttention(
              (dropout): Dropout(p=0.0, inplace=False)
              (sampling_offsets): Linear(in_features=256, out_features=256, bias=True)
              (attention_weights): Linear(in_features=256, out_features=128, bias=True)
              (value_proj): Linear(in_features=256, out_features=256, bias=True)
              (output_proj): Linear(in_features=256, out_features=256, bias=True)
            )
          )
          (ffns): ModuleList(
            (0): FFN(
              (activation): ReLU(inplace=True)
              (layers): Sequential(
                (0): Sequential(
                  (0): Linear(in_features=256, out_features=2048, bias=True)
                  (1): ReLU(inplace=True)
                  (2): Dropout(p=0.0, inplace=False)
                )
                (1): Linear(in_features=2048, out_features=256, bias=True)
                (2): Dropout(p=0.0, inplace=False)
              )
            )
          )
          (norms): ModuleList(
            (0): LayerNorm((256,), eps=1e-05, elementwise_affine=True)
            (1): LayerNorm((256,), eps=1e-05, elementwise_affine=True)
          )
          (norm2): LayerNorm((256,), eps=1e-05, elementwise_affine=True)
        )
      )
      (enhance_MCSP): ModuleList(
        (0): Linear(in_features=256, out_features=80, bias=True)
        (1): Linear(in_features=256, out_features=80, bias=True)
        (2): Linear(in_features=256, out_features=80, bias=True)
        (3): Linear(in_features=256, out_features=80, bias=True)
        (4): Linear(in_features=256, out_features=80, bias=True)
        (5): Linear(in_features=256, out_features=80, bias=True)
      )
    )
    (decoder): FOCUS_DETRTransformerDecoder(
      (layers): ModuleList(
        (0): BaseTransformerLayer(
          (attentions): ModuleList(
            (0): MultiheadAttention(
              (attn): MultiheadAttention(
                (out_proj): NonDynamicallyQuantizableLinear(in_features=256, out_features=256, bias=True)
              )
              (proj_drop): Dropout(p=0.0, inplace=False)
            )
            (1): MultiScaleDeformableAttention(
              (dropout): Dropout(p=0.0, inplace=False)
              (sampling_offsets): Linear(in_features=256, out_features=256, bias=True)
              (attention_weights): Linear(in_features=256, out_features=128, bias=True)
              (value_proj): Linear(in_features=256, out_features=256, bias=True)
              (output_proj): Linear(in_features=256, out_features=256, bias=True)
            )
          )
          (ffns): ModuleList(
            (0): FFN(
              (activation): ReLU(inplace=True)
              (layers): Sequential(
                (0): Sequential(
                  (0): Linear(in_features=256, out_features=2048, bias=True)
                  (1): ReLU(inplace=True)
                  (2): Dropout(p=0.0, inplace=False)
                )
                (1): Linear(in_features=2048, out_features=256, bias=True)
                (2): Dropout(p=0.0, inplace=False)
              )
            )
          )
          (norms): ModuleList(
            (0): LayerNorm((256,), eps=1e-05, elementwise_affine=True)
            (1): LayerNorm((256,), eps=1e-05, elementwise_affine=True)
            (2): LayerNorm((256,), eps=1e-05, elementwise_affine=True)
          )
        )
        (1): BaseTransformerLayer(
          (attentions): ModuleList(
            (0): MultiheadAttention(
              (attn): MultiheadAttention(
                (out_proj): NonDynamicallyQuantizableLinear(in_features=256, out_features=256, bias=True)
              )
              (proj_drop): Dropout(p=0.0, inplace=False)
            )
            (1): MultiScaleDeformableAttention(
              (dropout): Dropout(p=0.0, inplace=False)
              (sampling_offsets): Linear(in_features=256, out_features=256, bias=True)
              (attention_weights): Linear(in_features=256, out_features=128, bias=True)
              (value_proj): Linear(in_features=256, out_features=256, bias=True)
              (output_proj): Linear(in_features=256, out_features=256, bias=True)
            )
          )
          (ffns): ModuleList(
            (0): FFN(
              (activation): ReLU(inplace=True)
              (layers): Sequential(
                (0): Sequential(
                  (0): Linear(in_features=256, out_features=2048, bias=True)
                  (1): ReLU(inplace=True)
                  (2): Dropout(p=0.0, inplace=False)
                )
                (1): Linear(in_features=2048, out_features=256, bias=True)
                (2): Dropout(p=0.0, inplace=False)
              )
            )
          )
          (norms): ModuleList(
            (0): LayerNorm((256,), eps=1e-05, elementwise_affine=True)
            (1): LayerNorm((256,), eps=1e-05, elementwise_affine=True)
            (2): LayerNorm((256,), eps=1e-05, elementwise_affine=True)
          )
        )
        (2): BaseTransformerLayer(
          (attentions): ModuleList(
            (0): MultiheadAttention(
              (attn): MultiheadAttention(
                (out_proj): NonDynamicallyQuantizableLinear(in_features=256, out_features=256, bias=True)
              )
              (proj_drop): Dropout(p=0.0, inplace=False)
            )
            (1): MultiScaleDeformableAttention(
              (dropout): Dropout(p=0.0, inplace=False)
              (sampling_offsets): Linear(in_features=256, out_features=256, bias=True)
              (attention_weights): Linear(in_features=256, out_features=128, bias=True)
              (value_proj): Linear(in_features=256, out_features=256, bias=True)
              (output_proj): Linear(in_features=256, out_features=256, bias=True)
            )
          )
          (ffns): ModuleList(
            (0): FFN(
              (activation): ReLU(inplace=True)
              (layers): Sequential(
                (0): Sequential(
                  (0): Linear(in_features=256, out_features=2048, bias=True)
                  (1): ReLU(inplace=True)
                  (2): Dropout(p=0.0, inplace=False)
                )
                (1): Linear(in_features=2048, out_features=256, bias=True)
                (2): Dropout(p=0.0, inplace=False)
              )
            )
          )
          (norms): ModuleList(
            (0): LayerNorm((256,), eps=1e-05, elementwise_affine=True)
            (1): LayerNorm((256,), eps=1e-05, elementwise_affine=True)
            (2): LayerNorm((256,), eps=1e-05, elementwise_affine=True)
          )
        )
        (3): BaseTransformerLayer(
          (attentions): ModuleList(
            (0): MultiheadAttention(
              (attn): MultiheadAttention(
                (out_proj): NonDynamicallyQuantizableLinear(in_features=256, out_features=256, bias=True)
              )
              (proj_drop): Dropout(p=0.0, inplace=False)
            )
            (1): MultiScaleDeformableAttention(
              (dropout): Dropout(p=0.0, inplace=False)
              (sampling_offsets): Linear(in_features=256, out_features=256, bias=True)
              (attention_weights): Linear(in_features=256, out_features=128, bias=True)
              (value_proj): Linear(in_features=256, out_features=256, bias=True)
              (output_proj): Linear(in_features=256, out_features=256, bias=True)
            )
          )
          (ffns): ModuleList(
            (0): FFN(
              (activation): ReLU(inplace=True)
              (layers): Sequential(
                (0): Sequential(
                  (0): Linear(in_features=256, out_features=2048, bias=True)
                  (1): ReLU(inplace=True)
                  (2): Dropout(p=0.0, inplace=False)
                )
                (1): Linear(in_features=2048, out_features=256, bias=True)
                (2): Dropout(p=0.0, inplace=False)
              )
            )
          )
          (norms): ModuleList(
            (0): LayerNorm((256,), eps=1e-05, elementwise_affine=True)
            (1): LayerNorm((256,), eps=1e-05, elementwise_affine=True)
            (2): LayerNorm((256,), eps=1e-05, elementwise_affine=True)
          )
        )
        (4): BaseTransformerLayer(
          (attentions): ModuleList(
            (0): MultiheadAttention(
              (attn): MultiheadAttention(
                (out_proj): NonDynamicallyQuantizableLinear(in_features=256, out_features=256, bias=True)
              )
              (proj_drop): Dropout(p=0.0, inplace=False)
            )
            (1): MultiScaleDeformableAttention(
              (dropout): Dropout(p=0.0, inplace=False)
              (sampling_offsets): Linear(in_features=256, out_features=256, bias=True)
              (attention_weights): Linear(in_features=256, out_features=128, bias=True)
              (value_proj): Linear(in_features=256, out_features=256, bias=True)
              (output_proj): Linear(in_features=256, out_features=256, bias=True)
            )
          )
          (ffns): ModuleList(
            (0): FFN(
              (activation): ReLU(inplace=True)
              (layers): Sequential(
                (0): Sequential(
                  (0): Linear(in_features=256, out_features=2048, bias=True)
                  (1): ReLU(inplace=True)
                  (2): Dropout(p=0.0, inplace=False)
                )
                (1): Linear(in_features=2048, out_features=256, bias=True)
                (2): Dropout(p=0.0, inplace=False)
              )
            )
          )
          (norms): ModuleList(
            (0): LayerNorm((256,), eps=1e-05, elementwise_affine=True)
            (1): LayerNorm((256,), eps=1e-05, elementwise_affine=True)
            (2): LayerNorm((256,), eps=1e-05, elementwise_affine=True)
          )
        )
        (5): BaseTransformerLayer(
          (attentions): ModuleList(
            (0): MultiheadAttention(
              (attn): MultiheadAttention(
                (out_proj): NonDynamicallyQuantizableLinear(in_features=256, out_features=256, bias=True)
              )
              (proj_drop): Dropout(p=0.0, inplace=False)
            )
            (1): MultiScaleDeformableAttention(
              (dropout): Dropout(p=0.0, inplace=False)
              (sampling_offsets): Linear(in_features=256, out_features=256, bias=True)
              (attention_weights): Linear(in_features=256, out_features=128, bias=True)
              (value_proj): Linear(in_features=256, out_features=256, bias=True)
              (output_proj): Linear(in_features=256, out_features=256, bias=True)
            )
          )
          (ffns): ModuleList(
            (0): FFN(
              (activation): ReLU(inplace=True)
              (layers): Sequential(
                (0): Sequential(
                  (0): Linear(in_features=256, out_features=2048, bias=True)
                  (1): ReLU(inplace=True)
                  (2): Dropout(p=0.0, inplace=False)
                )
                (1): Linear(in_features=2048, out_features=256, bias=True)
                (2): Dropout(p=0.0, inplace=False)
              )
            )
          )
          (norms): ModuleList(
            (0): LayerNorm((256,), eps=1e-05, elementwise_affine=True)
            (1): LayerNorm((256,), eps=1e-05, elementwise_affine=True)
            (2): LayerNorm((256,), eps=1e-05, elementwise_affine=True)
          )
        )
      )
      (ref_point_head): MLP(
        (layers): ModuleList(
          (0): Linear(in_features=512, out_features=256, bias=True)
          (1): Linear(in_features=256, out_features=256, bias=True)
        )
      )
      (norm): LayerNorm((256,), eps=1e-05, elementwise_affine=True)
      (class_embed): ModuleList(
        (0): Linear(in_features=256, out_features=80, bias=True)
        (1): Linear(in_features=256, out_features=80, bias=True)
        (2): Linear(in_features=256, out_features=80, bias=True)
        (3): Linear(in_features=256, out_features=80, bias=True)
        (4): Linear(in_features=256, out_features=80, bias=True)
        (5): Linear(in_features=256, out_features=80, bias=True)
        (6): Linear(in_features=256, out_features=80, bias=True)
      )
      (bbox_embed): ModuleList(
        (0): MLP(
          (layers): ModuleList(
            (0): Linear(in_features=256, out_features=256, bias=True)
            (1): Linear(in_features=256, out_features=256, bias=True)
            (2): Linear(in_features=256, out_features=4, bias=True)
          )
        )
        (1): MLP(
          (layers): ModuleList(
            (0): Linear(in_features=256, out_features=256, bias=True)
            (1): Linear(in_features=256, out_features=256, bias=True)
            (2): Linear(in_features=256, out_features=4, bias=True)
          )
        )
        (2): MLP(
          (layers): ModuleList(
            (0): Linear(in_features=256, out_features=256, bias=True)
            (1): Linear(in_features=256, out_features=256, bias=True)
            (2): Linear(in_features=256, out_features=4, bias=True)
          )
        )
        (3): MLP(
          (layers): ModuleList(
            (0): Linear(in_features=256, out_features=256, bias=True)
            (1): Linear(in_features=256, out_features=256, bias=True)
            (2): Linear(in_features=256, out_features=4, bias=True)
          )
        )
        (4): MLP(
          (layers): ModuleList(
            (0): Linear(in_features=256, out_features=256, bias=True)
            (1): Linear(in_features=256, out_features=256, bias=True)
            (2): Linear(in_features=256, out_features=4, bias=True)
          )
        )
        (5): MLP(
          (layers): ModuleList(
            (0): Linear(in_features=256, out_features=256, bias=True)
            (1): Linear(in_features=256, out_features=256, bias=True)
            (2): Linear(in_features=256, out_features=4, bias=True)
          )
        )
        (6): MLP(
          (layers): ModuleList(
            (0): Linear(in_features=256, out_features=256, bias=True)
            (1): Linear(in_features=256, out_features=256, bias=True)
            (2): Linear(in_features=256, out_features=4, bias=True)
          )
        )
      )
    )
    (tgt_embed): Embedding(900, 256)
    (enc_output): Linear(in_features=256, out_features=256, bias=True)
    (enc_output_norm): LayerNorm((256,), eps=1e-05, elementwise_affine=True)
    (enc_mask_predictor): MaskPredictor(
      (layer1): Sequential(
        (0): LayerNorm((256,), eps=1e-05, elementwise_affine=True)
        (1): Linear(in_features=256, out_features=256, bias=True)
        (2): GELU(approximate=none)
      )
      (layer2): Sequential(
        (0): Linear(in_features=256, out_features=128, bias=True)
        (1): GELU(approximate=none)
        (2): Linear(in_features=128, out_features=64, bias=True)
        (3): GELU(approximate=none)
        (4): Linear(in_features=64, out_features=1, bias=True)
      )
    )
  )
  (class_embed): ModuleList(
    (0): Linear(in_features=256, out_features=80, bias=True)
    (1): Linear(in_features=256, out_features=80, bias=True)
    (2): Linear(in_features=256, out_features=80, bias=True)
    (3): Linear(in_features=256, out_features=80, bias=True)
    (4): Linear(in_features=256, out_features=80, bias=True)
    (5): Linear(in_features=256, out_features=80, bias=True)
    (6): Linear(in_features=256, out_features=80, bias=True)
  )
  (bbox_embed): ModuleList(
    (0): MLP(
      (layers): ModuleList(
        (0): Linear(in_features=256, out_features=256, bias=True)
        (1): Linear(in_features=256, out_features=256, bias=True)
        (2): Linear(in_features=256, out_features=4, bias=True)
      )
    )
    (1): MLP(
      (layers): ModuleList(
        (0): Linear(in_features=256, out_features=256, bias=True)
        (1): Linear(in_features=256, out_features=256, bias=True)
        (2): Linear(in_features=256, out_features=4, bias=True)
      )
    )
    (2): MLP(
      (layers): ModuleList(
        (0): Linear(in_features=256, out_features=256, bias=True)
        (1): Linear(in_features=256, out_features=256, bias=True)
        (2): Linear(in_features=256, out_features=4, bias=True)
      )
    )
    (3): MLP(
      (layers): ModuleList(
        (0): Linear(in_features=256, out_features=256, bias=True)
        (1): Linear(in_features=256, out_features=256, bias=True)
        (2): Linear(in_features=256, out_features=4, bias=True)
      )
    )
    (4): MLP(
      (layers): ModuleList(
        (0): Linear(in_features=256, out_features=256, bias=True)
        (1): Linear(in_features=256, out_features=256, bias=True)
        (2): Linear(in_features=256, out_features=4, bias=True)
      )
    )
    (5): MLP(
      (layers): ModuleList(
        (0): Linear(in_features=256, out_features=256, bias=True)
        (1): Linear(in_features=256, out_features=256, bias=True)
        (2): Linear(in_features=256, out_features=4, bias=True)
      )
    )
    (6): MLP(
      (layers): ModuleList(
        (0): Linear(in_features=256, out_features=256, bias=True)
        (1): Linear(in_features=256, out_features=256, bias=True)
        (2): Linear(in_features=256, out_features=4, bias=True)
      )
    )
  )
  (criterion): Criterion FOCUS_DETRCriterion
      matcher: Matcher HungarianMatcher
          cost_class: 2.0
          cost_bbox: 5.0
          cost_giou: 2.0
          cost_class_type: focal_loss_cost
          focal cost alpha: 0.25
          focal cost gamma: 2.0
      losses: ['class', 'boxes']
      loss_class_type: focal_loss
  
…
loss_giou_1': 2.0, 'loss_class_dn_1': 1, 'loss_bbox_dn_1': 5.0, 'loss_giou_dn_1': 2.0, 'loss_class_2': 1, 'loss_bbox_2': 5.0, 'loss_giou_2': 2.0, 'loss_class_dn_2': 1, 'loss_bbox_dn_2': 5.0, 'loss_giou_dn_2': 2.0, 'loss_class_3': 1, 'loss_bbox_3': 5.0, 'loss_giou_3': 2.0, 'loss_class_dn_3': 1, 'loss_bbox_dn_3': 5.0, 'loss_giou_dn_3': 2.0, 'loss_class_4': 1, 'loss_bbox_4': 5.0, 'loss_giou_4': 2.0, 'loss_class_dn_4': 1, 'loss_bbox_dn_4': 5.0, 'loss_giou_dn_4': 2.0, 'select_loss': 1.5}
      num_classes: 80
      eos_coef: None
      focal loss alpha: 0.25
      focal loss gamma: 2.0
  (label_enc): Embedding(80, 256)
  (enhance_MCSP_layerlist): ModuleList(
    (0): Linear(in_features=256, out_features=80, bias=True)
    (1): Linear(in_features=256, out_features=80, bias=True)
    (2): Linear(in_features=256, out_features=80, bias=True)
    (3): Linear(in_features=256, out_features=80, bias=True)
    (4): Linear(in_features=256, out_features=80, bias=True)
    (5): Linear(in_features=256, out_features=80, bias=True)
  )
)
